…
2020-10-20 09:43:27.289486: I tensorflow/stream_executor/platform/default/dso_loader.cc:44] Successfully opened dynamic library cudart64_101.dll
2020-10-20-09-43-29
C:/Users/Zhou Qihua/Desktop/luo/DigitalNumberMnist_qat_sym/mnist_qat_sym.py:56: UserWarning: Implicit dimension choice for log_softmax has been deprecated. Change the call to include dim=X as an argument.
  return F.log_softmax(x)
----------------------------------------------------------------
        Layer (type)               Output Shape         Param #
================================================================
            Conv2d-1         [1024, 32, 26, 26]             320
       BatchNorm2d-2         [1024, 32, 26, 26]              64
              ReLU-3         [1024, 32, 26, 26]               0
            Conv2d-4         [1024, 64, 24, 24]          18,496
       BatchNorm2d-5         [1024, 64, 24, 24]             128
              ReLU-6         [1024, 64, 24, 24]               0
         MaxPool2d-7         [1024, 64, 12, 12]               0
            Linear-8               [1024, 1024]       9,438,208
              ReLU-9               [1024, 1024]               0
           Linear-10                 [1024, 10]          10,250
             ReLU-11                 [1024, 10]               0
================================================================
Total params: 9,467,466
Trainable params: 9,467,466
Non-trainable params: 0
----------------------------------------------------------------
Input size (MB): 3.06
Forward/backward pass size (MB): 1459.16
Params size (MB): 36.12
Estimated Total Size (MB): 1498.33
----------------------------------------------------------------
…
